Ramos_Exercise3/app/src/main/ml/model.tflite (tflite, 149220 bytes, 10 tensors)

sequential/conv2d/Relu;sequential/conv2d/BiasAdd;sequential/conv2d_2/Conv2D;sequential/conv2d/Conv2D;sequential/conv2d/BiasAdd/ReadVariableOp f4 [32, 3, 3, 3]
00000000: e326 25b9 a31d d4b9 efcb 5cb9 8582 d1b9
00000010: b266 0e3a 4a40 1eb9 3ed7 46b9 5a8e 0d3a
00000020: 6976 3636 6421 d1b9 3ea3 5ab7 045e 5338
00000030: 17e1 8238 0b2c ac39 4b65 a739 c3b8 5139
00000040: 4a77 f739 83d2 87b9 b1f3 00ba 1b59 ee37
00000050: 1108 e838 cf5c 07ba 2c45 1d3a bc96 083a
00000060: e2f5 61b9 ae79 8b38 be39 e5b7 c046 1b3a
00000070: 0ef3 48b9 7adc 18b9 55d3 1c3a 71b7 f3b9
00000080: 6e76 67b8 2c30 09b9 b2ec c1b9 82cd afb9
00000090: 7674 ed39 b504 a739 50cd 1538 3924 b8b9
000000a0: 0f13 ecb9 a83f 6cb8 aa5e fd39 151b 8939
000000b0: 35bd 04b9 4db3 b439 9904 9839 adca 33b9
000000c0: c6a3 143a 1622 2639 9eb4 a039 a982 093a
000000d0: f357 b539 1268 fdb8 2b6f 2b39 298e da39
000000e0: 4338 1db9 5793 9439 826d 47b6 6d57 beb9
000000f0: bac8 02ba 49fc 173a ed2e 8239 daf5 a3b8
00000100: 1240 6b39 30cb a6b8 b09e 5939 b864 2139
00000110: 01f0 0fb9 14fe b7b9 0f31 a339 9966 ebb9
00000120: 50f0 33b9 99d4 9539 1241 dc39 9026 9a39
00000130: 8d7a ab39 95ec 3db7 8aa1 9c38 9763 b1b8
00000140: 5f91 1cb9 59dc 9239 7121 bf38 8e1e 1b3a
00000150: 0b3c b8b9 49eb d339 6c9e 143a a237 ef39
00000160: 8e23 a4b7 a30c 8bb9 e8a3 b538 19dd 063a
00000170: eddc 9d39 130e b039 a0f8 093a b843 dcb8
00000180: a444 bbb8 7375 cf39 dc93 193a 1e53 7639
00000190: 9aa5 5eb9 3267 223a 1def 0239 1128 b6b9
000001a0: a66a 1b3a 36f4 80b9 d152 ab39 ffa8 f638
000001b0: 2299 f539 7ce2 90b9 84a3 bab9 934e 4fb9
000001c0: e6bc 86b9 7757 3d39 520d 14ba f3a4 a6b9
000001d0: cf1c 3eb9 ae38 e838 697c e839 3dbb ceb9
000001e0: fa7f acb9 a63f 43b9 83d5 6338 b218 88b8
000001f0: 7c6c 08b8 cba0 6739 55db cfb9 4138 2a39
00000200: ee03 7d38 8ddc 47b9 4983 93b8 0389 db39
00000210: dbd5 c239 0872 e439 fd3c c237 19cd 59b9
00000220: 9175 df39 ed9e 2ab7 8374 1c3a 07cc 95b9
00000230: 6f25 7db9 0087 9fb9 5853 dab7 1504 9039
00000240: b80b 8539 c1f5 eeb9 54af 41b9 fe5b d539
00000250: 9f62 0236 00f6 c738 b1ca 113a fcdd c539
00000260: fa4e a2b9 c8a6 b339 cb22 8fb8 ca91 11ba
00000270: 2135 103a d768 c4b9 c59d c738 893d 80b9
00000280: db74 fdb9 b059 0a39 44cf d439 d0d8 8438
00000290: 1da9 99b9 97af 97b8 c175 e6b9 67b1 0c3a
000002a0: 7bcf 083a 8f00 17ba 89be 21b9 50cf 123a
000002b0: 0bea 6539 800e 75b9 2d47 84b9 5444 30b9
000002c0: b3d3 a1b9 a685 1a3a f2f6 8838 1387 b3b8
000002d0: 9329 19b9 16a8 5838 264a 1739 a0f5 4bb9
000002e0: 7bb6 cdb9 28ce e7b8 a96d a138 eabe 45b9
000002f0: 44fc e7b9 fdc7 69b9 7779 023a 5350 5139
00000300: 7ef1 e5b9 81a7 c639 f71a 4b39 ff5a eeb9
00000310: ae56 dbb8 179b b5b8 7637 133a 8d06 43b9
00000320: efec b639 6caa be39 19c0 53b9 5525 0aba
00000330: a61e 7c38 78c6 57b9 8c54 b8b9 f23c 0aba
00000340: 7a17 e0b8 997d 9a37 2029 ae39 1800 183a
00000350: 8c69 7ab8 b15f 05b9 8edb c439 7551 03ba
00000360: 4871 e7b8 0873 9339 a71f 2f39 3376 a739
00000370: 0b53 8639 8b14 113a b91b c3b7 6ea3 e739
00000380: 8b84 9639 9b0e 09ba e34c 5838 170b a237
00000390: 45be 7138 633b d7b9 e238 27b8 d4ac c9b9
000003a0: 0877 9d39 8dab dcb9 83ae 0dba d1d9 40b9
000003b0: 1a53 64b8 7f98 48b8 1b31 efb9 1fdd ca39
000003c0: e977 5838 82a0 8539 651e 95b9 504d 1039
000003d0: 27e4 6538 dd5b 7db8 edcf 8b39 6d65 44b9
000003e0: 82c4 0a37 3d33 c239 ceaa 023a dda0 89b9
000003f0: 332f cd39 f14b a039 9169 8539 f54c a5b9
-0.00015750113 -0.00040457872 -0.00021056806 -0.0003996083 0.0005432173 -0.00015092004 -0.00018962935 0.0005399935
2.7189037e-06 -0.00039888464 -1.303182e-05 5.039388e-05 6.240809e-05 0.0003283921 0.0003192819 0.00020000622
0.00047200389 -0.0002590605 -0.00049191253 2.8413304e-05 0.000110641246 -0.0005163671 0.0005999382 0.00052104495
-0.0002154927 6.650701e-05 -2.7325816e-05 0.00059233233 -0.00019164031 -0.00014577984 0.00059824187 -0.00046485246
-5.5184988e-05 -0.00013083284 -0.0003698818 -0.00033531716 0.00045290933 0.0003185623 3.571558e-05 -0.00035122203
-0.00045027627 -5.632607e-05 0.0004832645 0.00026150854 -0.00012658986 0.00034465865 0.00028995125 -0.00017146273
0.0005670156 0.00015843692 0.00030652148 0.0005245605 0.00034588538 -0.00012083365 0.00016349244 0.00041686118
-0.00014993646 0.00028338537 -2.9717053e-06 -0.0003630476 -0.0004989017 0.0005797786 0.00024830495 -7.818239e-05
0.00022435214 -7.9533434e-05 0.00020753848 0.00015391677 -0.00013726951 -0.00035093783 0.00031126334 -0.00044899134
-0.00017160294 0.00028577892 0.0004201015 0.000294019 0.0003270697 -1.1320361e-05 7.468749e-05 -8.458568e-05
-0.00014931474 0.00028011462 9.113819e-05 0.0005917334 -0.0003513995 0.00040420357 0.00056693587 0.00045627082
-1.956688e-05 -0.0002652156 8.6612825e-05 0.00051446405 0.00030109976 0.00033579822 0.0005263183 -0.00010503031
-8.92964e-05 0.00039569623 0.00058585196 0.00023491352 -0.00021233261 0.0006195187 0.00012486843 -0.00034743597
0.00059286726 -0.00024596014 0.00032677365 0.00011761672 0.00046844134 -0.00027634564 -0.00035598513 -0.0001977033
-0.00025699212 0.00018057028 -0.0005647737 -0.00031784884 -0.00018130544 0.000110731795 0.0004434318 -0.00039430885
-0.00032901746 -0.0001862036 5.4319866e-05 -6.489585e-05 -3.252596e-05 0.00022089777 -0.00039645532 0.0001623342
6.032356e-05 -0.0001906028 -7.03396e-05 0.00041873017 0.00037161898 0.0004357251 2.3155002e-05 -0.00020771137
0.00042621468 -1.0169792e-05 0.00059682893 -0.00028571507 -0.00024141905 -0.00030427426 -2.6026435e-05 0.00027468862
0.00025376468 -0.00045577998 -0.00018471229 0.00040695065 1.9428915e-06 9.5348805e-05 0.00055615144 0.0003774016
-0.0003095789 0.00034265802 -6.825252e-05 -0.00055530353 0.0005501081 -0.00037462145 9.518446e-05 -0.0002445991
-0.00048342985 0.00013194117 0.00040590216 6.334635e-05 -0.00029308433 -7.232947e-05 -0.00043956752 0.0005367011
0.0005218905 -0.0005760276 -0.00015425136 0.000560035 0.0002192633 -0.00023370422 -0.00025230032 -0.00016810122
-0.0003086604 0.0005894549 6.5309825e-05 -8.560545e-05 -0.00014606705 5.1654955e-05 0.00014428105 -0.00019451091
-0.00039236606 -0.00011053338 7.697504e-05 -0.00018858505 -0.00044247706 -0.00022295113 0.0004977206 0.00019961716
-0.0004385821 0.00037890303 0.00019369634 -0.00045462695 -0.00010458879 -8.65964e-05 0.00056158693 -0.0001859909
0.00034890274 0.00036366598 -0.0002019409 -0.0005269845 6.0110026e-05 -0.00020577933 -0.00035158207 -0.0005273364
-0.00010685525 1.8416717e-05 0.00033218507 0.0005798354 -5.9702943e-05 -0.00012719516 0.00037547614 -0.00050093915
-0.000110360386 0.0002812373 0.00016701092 0.00031940787 0.00025620344 0.0005534372 -2.325872e-05 0.00044181518
0.00028708982 -0.00052283116 5.157002e-05 1.9317069e-05 5.763608e-05 -0.00041052242 -3.986888e-05 -0.00038466475
0.0003003406 -0.00042089485 -0.00054047274 -0.0001839169 -5.443683e-05 -4.782574e-05 -0.0004562222 0.0003869319
5.1610088e-05 0.00025487324 -0.0002844214 0.00013761711 5.4810338e-05 -6.0405455e-05 0.00026667063 -0.000187298
8.271194e-06 0.0003704074 0.00049845583 -0.0002625053 0.00039135813 0.0003057416 0.0002544639 -0.0003152859

sequential/conv2d/BiasAdd/ReadVariableOp f4 [32]
00000000: a5ee e53c 1bc3 c23b ec1a aebc a214 aebc
00000010: 228b 183c c491 423b a915 223d b0a3 bb3b
00000020: 5c09 b63c ddec 633c 1060 683c 5f89 493c
00000030: 2a6c 083d 237a 90bc 891b 3bbc 9d64 0bbd
00000040: 0000 0000 3989 1abd 5808 39bd 6f67 ca3c
00000050: 3659 14bd a78f 243d 1a07 11bd 8fe3 1d3c
00000060: 69cc 723b ea32 f0b9 8a27 b83b 3be8 01bd
00000070: e836 a53c bd04 433c 5956 a53c 1fac c13b
0.028067896 0.0059436685 -0.021253072 -0.021250073 0.009310516 0.0029688934 0.039571438 0.0057263
0.02222126 0.013911453 0.014183059 0.012300818 0.03330628 -0.017636364 -0.011420139 -0.0340315
0.0 -0.037728522 -0.045173973 0.024707524 -0.03621789 0.04017606 -0.035407163 0.009636774
0.0037048107 -0.000458143 0.005619948 -0.031715613 0.020167783 0.011902985 0.020182775 0.005910411

sequential/conv2d_1/BiasAdd/ReadVariableOp f4 [32]
00000000: dd0c 8f3c 927b a5bb 6f36 1ebd 3c84 b1bb
00000010: 611d 133b 8fea f63b cd4f e6bb 62da 00bc
00000020: 92de f7bc 5dfa a63c 8fbf aa3c 38e7 d2bb
00000030: 7415 5cbc 210c ba3c f901 2bbc 175a 883c
00000040: dff2 0a3c 1859 9e3c f686 05bd 7108 c3bb
00000050: 402e 15bd 13b8 893c 850c c9bb 189c febb
00000060: f1b0 bbbb 3e46 a0bc 3a85 883c 0000 0000
00000070: 0000 0000 f048 6dbc e803 e2bb 02a3 d3bb
0.017462188 -0.005050131 -0.03862613 -0.005417375 0.002244793 0.007535286 -0.007028556 -0.0078645665
-0.030257497 0.020383054 0.020843295 -0.006436255 -0.013432849 0.022710862 -0.010437482 0.01664452
0.008480757 0.019329593 -0.032599412 -0.005951934 -0.03642106 0.016811406 -0.0061355256 -0.0077700727
-0.00572788 -0.019564744 0.01666509 0.0 0.0 -0.014482722 -0.0068974383 -0.006458641

sequential/conv2d_2/BiasAdd/ReadVariableOp f4 [32]
00000000: dfff 5fba f954 803b 0401 68bb ebd2 ab3c
00000010: 0000 0000 9b79 17bc 06ba e33b efc1 a7bb
00000020: ab3e 68bc a904 06bc d498 21bc f829 e9bb
00000030: 00a2 c4bb 68f0 aa3c 16c3 b8bb 935e b0bb
00000040: 8780 a3bb 0c66 b5bb 7f12 6abc 3209 cfba
00000050: 35b2 923c 5f52 0ebc 0000 0000 f338 b23c
00000060: e13a e7bb 2eac c43b 749e 12bc 64cf 34bc
00000070: 883d e73c 0680 da3c 3e42 0e3c e79e b7bb
-0.00085449027 0.0039163795 -0.0035400996 0.020974597 0.0 -0.009245302 0.006949666 -0.005119554
-0.014175097 -0.008179822 -0.009863097 -0.007115599 -0.006000757 0.020866588 -0.0056384904 -0.005382368
-0.004989687 -0.0055358466 -0.014286636 -0.0015795587 0.017907241 -0.008686631 0.0 0.021755671
-0.0070565795 0.0060019707 -0.008948911 -0.011035774 0.028227583 0.026672374 0.008682786 -0.0056036594

sequential/conv2d_1/Conv2D f4 [32, 3, 3, 32]
00000000: 0fc6 f2bd 66fa 11bd 3cdc 8fbc 5944 e03d
00000010: a0cf b5bd 3067 6abd b014 443b 628f b03d
00000020: ddb6 13bd b57b f53b 0c15 8c3d 3d72 7abc
00000030: f7ec f73d 2846 81bd addf c03d c7ac 4b3d
00000040: 10ee 7abc df17 893c 2126 9c3d 98b3 e93c
00000050: 38ce 853d 86b7 353d c982 1d3d a769 08bd
00000060: 5960 adbd 1764 fa3d d537 09bc c61a 623d
00000070: 9f6d a53d e9e9 fa3d 97fd 0bbd 9d22 e0bd
00000080: 584a efba c74e 3dbc 16a8 9bbc a4d1 6bbd
00000090: beac 7dbd 38a8 03bd ac49 873d 5894 98bd
000000a0: 21c0 32bc 57b2 f93c 183a 37bd d6ab 773d
000000b0: ffee ce3d 2ded 5fbd 0192 6b3c 99f0 b9bc
000000c0: 5875 18bc 4777 a0bd 1eae b53b bb55 0bbb
000000d0: e008 393c 4258 473d 2cc6 10bd ac35 753d
000000e0: 2711 1a3d 53d9 db3d dec8 dd3d a633 79bd
000000f0: 6d68 2f3d fdde f5bb 3a73 973d 6d9b 803c
00000100: 3f5b 233c 2cf0 b23c 9bb2 d0bd e01d 563b
00000110: d2a9 17bb f412 a2bd d86f c13d 40b5 383d
00000120: 3ab4 be3d 4dd7 133c e176 903d 59d1 463c
00000130: 151d adbc 845e 863d 7cfa 7c3d 762b 70bc
00000140: 4078 f33c 78be aebc 8c00 85bd f280 033e
00000150: 0635 a7bc aa58 143d 4470 cf3d 3aa0 433d
00000160: caf8 1b3d 37a1 c0bc 8366 e43d 65fe bdbd
00000170: a4ec 3d3d 9821 bebc 0952 b4bb e51c 0dbd
00000180: 8eb8 1dbd b97d 693d 10d8 1abc 48d5 4abd
00000190: 0362 81bd 3efc 8e3d 376a d33d dd79 a8bd
000001a0: 56f0 c33d b6bb ac3d 38d0 763d dc9d bb3d
000001b0: 32be 09bd b837 b6bd 38c8 ecbc 674c cf3c
000001c0: 1c1d aebc b6d8 513d 4703 2dbd b725 e43c
000001d0: b346 2ebc 877d cf3c 643e b5bd 608b 443d
000001e0: 6044 c23d 2f45 89bd d430 ffbb 7afd af3d
000001f0: ed05 c93d 57b2 343d c258 a53d 7b62 a6bc
00000200: f228 7e3c 8825 133d da4a a0bd 72b6 a43d
00000210: 7ef9 6e3d 5742 0f3d 5801 4bbc bf9b 543d
00000220: ff93 133b 296c 8abd e436 f83d f939 e43d
00000230: f0f1 1a3e d1eb e4bd 50f2 dc3c e4dd 003b
00000240: ec35 aabd 7d11 d5bd e6e8 603d af91 913d
00000250: 6ed4 cfbd 1241 a53d 1901 9ebd 3011 57bc
00000260: e195 d7bd 3dc3 e03c f929 943d 5357 273d
00000270: adce 613d 9f65 043e 64c5 463d 06a5 f1bc
00000280: b913 d9bd 415d e43c 9966 093d 9f67 e3bd
00000290: 6baf 1d3c 472f c8bc 04f6 bb3d 16cc 403d
000002a0: 451d 02bd 5dbd 933d 9df0 89bd ab13 1abd
000002b0: 79e2 8d3b 8bc0 053a b3c3 ac3d ea67 953d
000002c0: 96c9 bf3d ebfd bc3c f561 5bbd 43a0 903d
000002d0: 748f acbd 97a6 273d d5a9 21bd 0d6d 17bd
000002e0: 84cd 0dbd 810a 343c 44c6 e13c 4fc2 993d
000002f0: a090 033d 79f3 6b3c 7fa1 86bd 34ae 69bd
00000300: 7074 733a 17de 5c3d 5512 33bd b060 dabb
00000310: 3038 833d 050c 903d 1868 403d 18d3 e7bd
00000320: 7f10 ce3d 2139 67bd 2e5e 793c 6d3d b13d
00000330: 7c23 bf3c 1f98 85bd 1fbe 85bd 8620 52bd
00000340: 2e88 a3bd 2d59 81bb 2dde b53d c044 8bbd
00000350: 107d fbbd eb24 00bc 2536 f63a f0c1 b0bd
00000360: bf6a 67bd 4b8a 053d e158 603d b001 8bbd
00000370: 3998 c03d d6a2 a43d e88d 8a3d 910c 38bc
00000380: 3f5e 2bbd 40fe cfbd 2a68 dfbd 22c7 72bd
00000390: 2a8e 00bd 7b6b 2ebd f082 913c f484 a8bd
000003a0: 012d f23d d560 b2bb 7a87 b73b c94b 013c
000003b0: 82b1 e83d 2a85 9abd 71a6 b2bd 0122 96bd
000003c0: 51db 60bd de59 f2bb 78ba 92bd 14a9 8abc
000003d0: 4fe2 5b3c aa6a 0c3e ccc1 3abd ac84 17bd
000003e0: d60c 72bd 0810 a3bc 486b bfbd 43b5 24bd
000003f0: 7a47 653b 6bf0 f93d 9a57 60bd ccf5 b33c
-0.11854183 -0.03563919 -0.01756107 0.10950536 -0.08877492 -0.057227314 0.0029919557 0.08621098
-0.036063064 0.0074915537 0.06839952 -0.015286026 0.12105744 -0.06312209 0.09417663 0.04972532
-0.015315548 0.016735015 0.0762446 0.02852802 0.06533474 0.044364475 0.038454805 -0.033303883
-0.084656425 0.12226122 -0.008375128 0.055201314 0.08077549 0.12251646 -0.03417739 -0.10944102
-0.0018256409 -0.0115544265 -0.019001048 -0.057572976 -0.061932318 -0.032142848 0.06605849 -0.07450169
-0.010910065 0.030480547 -0.044733137 0.06046661 0.10104179 -0.054669548 0.014378072 -0.022697734
-0.009305321 -0.0783525 0.005544438 -0.0021260816 0.01129362 0.048668154 -0.03534524 0.05986564
0.037614014 0.10734811 0.10829328 -0.06084027 0.042824198 -0.007503389 0.073950246 0.015699113
0.009970485 0.021843038 -0.10190316 0.0032671615 -0.0023141992 -0.07913771 0.094451606 0.04509473
0.09311719 0.0090235 0.07053924 0.012134873 -0.021132031 0.06560996 0.061762318 -0.014658799
0.029720426 -0.021331057 -0.06494245 0.12842157 -0.020411026 0.03621737 0.10128835 0.047760226
0.03807906 -0.023514373 0.11152365 -0.092770375 0.046368256 -0.023209378 -0.0055029434 -0.034451384
-0.038506083 0.057004664 -0.009450927 -0.049519807 -0.063175224 0.06981705 0.10322993 -0.082263686
0.09567325 0.084342405 0.060257167 0.09160969 -0.03362865 -0.08897346 -0.028904065 0.025304986
-0.021254115 0.051232062 -0.042239454 0.027850015 -0.010636973 0.02532841 -0.08849791 0.04798448
0.09485698 -0.06702649 -0.007787803 0.08593269 0.098155834 0.04411539 0.0807357 -0.020310631
0.015512692 0.035924464 -0.07826777 0.08042611 0.058343403 0.034975376 -0.012390457 0.051906344
0.0022518632 -0.06758911 0.121198446 0.1114387 0.15131354 -0.11177791 0.026971012 0.0019663507
-0.08311066 -0.10403726 0.05490961 0.07107865 -0.101479396 0.08069052 -0.07715053 -0.013126656
-0.10526634 0.027436847 0.07234568 0.040854763 0.055128742 0.1292939 0.04852809 -0.029497635
-0.10599465 0.027876498 0.03354511 -0.111037485 0.009624342 -0.024436606 0.09177783 0.04706963
-0.031766195 0.072138526 -0.067353465 -0.037616413 0.004329976 0.00051022385 0.08435764 0.07295211
0.09364621 0.023070296 -0.053560216 0.070618175 -0.08425799 0.040930357 -0.039468605 -0.036969233
-0.034619823 0.010988832 0.02756036 0.075077645 0.032120347 0.01440131 -0.06573772 -0.0570509
0.0009287065 0.05392274 -0.043718655 -0.006664358 0.06407201 0.070335425 0.04697427 -0.1131956
0.1006174 -0.056450967 0.015220208 0.08654294 0.02333235 -0.065231554 -0.06530403 -0.051300548
-0.079849586 -0.003947398 0.08880267 -0.068002224 -0.12279713 -0.007821302 0.0018784447 -0.08630741
-0.056498285 0.03260259 0.05477226 -0.06787431 0.09404034 0.08038871 0.06765348 -0.011233465
-0.041837927 -0.10155916 -0.109085396 -0.05927194 -0.03138558 -0.04258297 0.017762631 -0.08228484
0.1182499 -0.005443672 0.005600867 0.007891604 0.11361982 -0.0754493 -0.087231524 -0.073307045
-0.054896656 -0.007395967 -0.07164472 -0.016926326 0.013420655 0.13712564 -0.045594975 -0.03699176
-0.059094273 -0.019905105 -0.09346634 -0.040211927 0.003498523 0.12204059 -0.054771043 0.021967791

sequential/conv2d_2/Conv2D f4 [32, 3, 3, 32]
00000000: 7670 15bd 208f 2c3c c01e bc3d b17a a53d
00000010: b673 87bd 341a d8bd 31e6 b6bd 999f 4dbd
00000020: 2a00 48bd 9c34 153d fc91 023e 85f4 cb3d
00000030: 4062 703d 32b9 1dbd 1191 f63c 7235 9f3c
00000040: cdc3 bbbb 683a bebd 6592 bb3d ff71 cbbd
00000050: 5114 aabd 0d69 e63d 4841 4dbd 418e 4d3d
00000060: bbca babd 4d03 91bd e095 893d 28de 643d
00000070: 205c d63b d4af 68bd bc82 bb3d cc58 febc
00000080: 6d24 3d3c 042f 91bd f5d3 d43c ba04 10bd
00000090: 27e8 9f3d 4f2a 3e3d 6d0a 9abd 78cc c7bc
000000a0: 751f d03d d65f afbc 9168 f3bc aeb4 3bbd
000000b0: 9380 0d3d 8557 9f3d 1922 fe3c 4c42 58bc
000000c0: ba58 223c 2765 17be a3cd c2bd d93c c5bb
000000d0: ea85 17bd ea28 da3d b48a c33d d342 803a
000000e0: f484 adbd 0f0c 9ebd 5aeb 29bd 84a6 023d
000000f0: e060 abbd 0a45 31bd 22a5 2e3d 4cad 303d
00000100: 2e44 c53d e814 353c 0727 91bd 56ca 873d
00000110: 53ad a43d 175d e0ba 362d 963d 6af7 85bd
00000120: 52fd 55bd 3861 cf3d 4637 89bc 6e6a ca3c
00000130: 01c8 a63d e7be 9f3d 7da0 b3bd 164e d6bc
00000140: 425f 253d 3517 fb3c 0a9f c03d 7eeb 33bd
00000150: 59b1 c03d 068f 583d 80bc 693b 1228 3e3d
00000160: 1d75 ce3c 0285 b03d 22b7 db3d b61c bd3d
00000170: 8f76 bbbd 588f a63d 58a4 1d3b 580f 7bbc
00000180: 8068 613d e0ee ce3c 0631 023d ef54 5dbd
00000190: a6dc e1bd acdc b13c 7055 0ebd 18e3 b4bd
000001a0: 215c 9bbd 18be c43c f066 a63c daa8 c33c
000001b0: 822d 0bbd e8c6 1c3c bdbe 7fbd d009 2dbd
000001c0: 9496 ed3d bfc5 1fbd 63f1 913d 1298 b63d
000001d0: 9a6f 42bc 8df0 563d 008a ed3c 3801 c4bd
000001e0: 25f8 42bd 5299 d53b 8ea5 53ba 503b 803d
000001f0: ce2b b9bd 6b45 fcbc 8107 703d 7015 c63c
00000200: cfb9 24bd 889f 73bd 174f 613d 32ba 25bd
00000210: 16ed 8dbb 3b47 5abd 0df4 50bb f202 8cbd
00000220: c522 cdbd fc58 49bd ab0d a6bc 52ec 113b
00000230: 9581 fbbc 9631 7cbd c795 afbd 9196 fcbd
00000240: aba5 b83d 9005 9bbd d125 49bb 508d cfbd
00000250: 9815 98bd c1ea 963d 2803 1f3c 525f 37bd
00000260: ef77 2dbd 098a 8abd cf87 1abc 7eb9 cbbd
00000270: 78a4 083d ca25 b93d a3c0 75bd d066 bf3d
00000280: a3a0 b0bc 809f 913a 6cf7 613d ba9e 0ebc
00000290: b2fe bebd 58a8 ffbb 5517 47bd 60f7 3e3c
000002a0: 2aad a33d 5c2f 5c3c 2ee7 973d a972 503d
000002b0: 313c f639 e49c 423d d0a5 e93c 1e76 bcbd
000002c0: 840a dd3d 2bfe 3bbd e92f 783d 36af b23d
000002d0: 921f 94bd cfef 813c 0005 db3b ed11 563d
000002e0: 8080 b93c 296a 733d 62bd e03d a4f5 bebc
000002f0: 5ecb 863d 6fae 843d 8305 4abd 14ae 753d
00000300: 051e cf3b 205f 033b e42d f73b 8828 33bd
00000310: cfa2 0a3d 884f 8a3d 451e 8bbd 87c0 adbd
00000320: f3ad 0dbd 724e 32bd 9f3a 68bb 53ba 04bc
00000330: dc28 103c b72b 2c3d a2ac a9bd 2ff8 2a3d
00000340: 63f6 b53d 6f94 b3bd db46 87bd 88bc 4dbc
00000350: be82 643d f4d3 06bd e07c 783d a608 9f3d
00000360: 3f5d a2bd 1bf6 5c3c 0cb7 7dbd 8ed3 2bbd
00000370: 4058 bbbc afaa 683d d6db b23c 40de c03c
00000380: 6f33 233d 7020 b53b 2556 503d 3617 92bd
00000390: c86c a2bd 1897 343d b8c6 b63c f7db 7d3d
000003a0: 87c2 c33c fd02 813c 620b 003d 5b61 ff3c
000003b0: d9c6 bfbd 630e 903d 0d20 f2bc f120 70bd
000003c0: a395 9b3d 45c4 b7bd 8e8d a33c 18b3 ce3c
000003d0: 260c 45bd 83a0 19bd 2480 c83d fa5f fcbc
000003e0: 5a59 00bd e224 fcbc 9f13 243d 79fc 53bd
000003f0: baf9 b33d 4734 443c 3932 1c3d c8f1 38bd
-0.036484204 0.0105321705 0.091855526 0.08080042 -0.06613867 -0.10551873 -0.08930624 -0.050201032
-0.04882828 0.036427125 0.12751001 0.09958748 0.05868745 -0.038506694 0.03009847 0.019434664
-0.0057301284 -0.09288484 0.09158782 -0.099338524 -0.08304656 0.112505056 -0.050111085 0.050184492
-0.09120699 -0.07080708 0.067180395 0.055875927 0.006541744 -0.056808308 0.09155795 -0.031048201
0.011544329 -0.07089046 0.025979975 -0.035160758 0.078079514 0.046427067 -0.0752152 -0.02438949
0.1016225 -0.021408003 -0.029712947 -0.045826606 0.034546446 0.07780365 0.031022118 -0.0131994
0.009908849 -0.1478468 -0.09511878 -0.0060192165 -0.036992945 0.10652335 0.0954794 0.000978554
-0.084726244 -0.07717144 -0.041484214 0.031897083 -0.08368087 -0.04327873 0.04263795 0.04313402
0.09632145 0.011052348 -0.07087522 0.066303894 0.080408715 -0.0017117587 0.07332842 -0.06541331
-0.05224354 0.10125965 -0.01674999 0.024708953 0.081436165 0.078000836 -0.08770845 -0.026160281
0.040374048 0.030650714 0.09405334 -0.043925755 0.094088264 0.052870773 0.0035665333 0.046424933
0.025202328 0.08619119 0.10728289 0.09233992 -0.09153473 0.081328094 0.0024054255 -0.015323482
0.0550313 0.025260389 0.031785034 -0.054036077 -0.110284135 0.02171167 -0.03474945 -0.08832377
-0.075859316 0.024016425 0.020312756 0.023884226 -0.033978947 0.009568907 -0.06243776 -0.042245686
0.11600986 -0.039006945 0.07126119 0.08915724 -0.011867428 0.0524755 0.028996468 -0.09570545
-0.04759993 0.0065185213 -0.0008073681 0.06261313 -0.09041558 -0.03079482 0.058600906 0.024180144
-0.040216263 -0.059478313 0.055007067 -0.040460773 -0.0043312414 -0.053290587 -0.0031883747 -0.06836499
-0.100163974 -0.049157128 -0.02027019 0.0022266102 -0.030701438 -0.061570726 -0.0857349 -0.12333406
0.09015974 -0.0756942 -0.0030692706 -0.10134375 -0.07425994 0.073689945 0.009705342 -0.04476864
-0.042350706 -0.06764609 -0.009431793 -0.09947489 0.033359975 0.09040411 -0.059998166 0.09345782
-0.021560973 0.0011110157 0.0551676 -0.008704836 -0.09325923 -0.0078020506 -0.048606236 0.0116556585
0.07992013 0.013439026 0.07417141 0.0508906 0.00046965622 0.047512904 0.028521448 -0.092022166
0.10793021 -0.04589669 0.060592566 0.08724825 -0.07232584 0.01586142 0.0066839457 0.05226319
0.022644281 0.059427414 0.10973622 -0.02331049 0.06581758 0.06478583 -0.049321663 0.059980467
0.0063207173 0.0020045713 0.0075433124 -0.043739825 0.033846673 0.06753451 -0.06792883 -0.08483987
-0.03458972 -0.043531843 -0.0035435332 -0.008101064 0.008798804 0.042033877 -0.0828488 0.041740593
0.08884885 -0.08768546 -0.066053115 -0.012557156 0.055788748 -0.032916978 0.060665965 0.077653214
-0.079279415 0.0134864105 -0.061942145 -0.0419498 -0.02286923 0.0568034 0.021833342 0.023543477
0.039843973 0.0055275485 0.050863404 -0.071333334 -0.079309046 0.044089407 0.022311553 0.061977353
0.023896469 0.015748495 0.031260855 0.031174352 -0.09364099 0.07033994 -0.029556299 -0.058625165
0.075969 -0.08972982 0.01996496 0.025231883 -0.04810729 -0.03750659 0.09790066 -0.030807484
-0.031335212 -0.030779306 0.040057775 -0.05175445 0.08787866 0.0119753545 0.038133834 -0.045152456

sequential/dense/BiasAdd/ReadVariableOp f4 [128]
00000000: 6efc d13c 0000 0000 cdac 3e3b ba87 10bc
00000010: 58a8 f0ba 4da4 c4bb edf2 113c 0c05 133b
00000020: 7994 013c 4136 08bc 0000 0000 3275 56bc
00000030: f9cb 0abc 3af5 cd3b 6384 d4bb 4579 e4bb
00000040: 7d17 a73c 0000 0000 bef2 523c 03b6 db3a
00000050: 27f7 dc3b 2cff bb3c 74f1 fdbb 216d 0aba
00000060: df02 b6bb b4bf c4bb f103 09bc 8aef 983c
00000070: b0fd 10bc 7f63 25bc a94c d5bb 9ed6 223c
00000080: 0000 0000 1216 fc3a 5282 01bb 05c1 063c
00000090: 2d7b 033a 6ef0 363b 127f 2dbc 29e7 8e3c
000000a0: 0000 0000 2258 0cbb 0000 0000 0000 0000
000000b0: d92a 1bbc a6bb 5e3a d1dc 3dbc 1432 503a
000000c0: 644b 09bc 9d11 023c 64ae e2bb adea 55ba
000000d0: 9c52 07bb 2868 52bc 0715 0dbc afc3 0dbc
000000e0: 79c5 06bc 0000 0000 3e10 023a 4f3c 8a3c
000000f0: b08b f1bb dfd8 8e3c 2886 943a cd46 893c
00000100: f7b5 143b ec03 8a3c 0000 0000 26fa f1bb
00000110: 0000 0000 11cc 623c 79bb 183c 0fe8 3fbc
00000120: 4a07 71bc 7cb3 22bc 227e 323c 1e93 c4bb
00000130: fb92 ac3c b22b fbb9 0712 7f3b 5408 b83c
00000140: 54ac c43c c20c 89bc b09f 933b ca6a 083c
00000150: 4c4a 573c dd9e bebb d1b8 15bc 29c1 ddbb
00000160: af4d 13bb e113 6e3a bce0 923c 80e2 31bc
00000170: 3e95 193c b6bd 08bc 9118 3cbc a069 8bba
00000180: 3466 f139 04a6 ba3c 0000 0000 0cd0 5e3c
00000190: a3e4 c33b d270 8a3c 0e1d 6f3c ff7b 4cbc
000001a0: 343f 993b 0000 0000 0000 0000 0000 0000
000001b0: 6f15 c4bb d499 0dbc 5def a8bb c616 b2b8
000001c0: 2b14 e6bb 6cab ddbb 0eb5 fcbb 99b2 d1b9
000001d0: 0000 0000 df87 b93c 530c 953c c7e2 55bc
000001e0: a178 133c ba57 9abb ecda 1d3c c3dc de3c
000001f0: 9fd1 8e3b 8146 51bc ecd9 89bc 1b95 bd3c
0.025633063 0.0 0.0029094697 -0.008821422 -0.0018360717 -0.0060010315 0.008908016 0.0022433428
0.007908934 -0.008313716 0.0 -0.013089465 -0.008471482 0.006285337 -0.0064855083 -0.0069724643
0.020396942 0.0 0.012875257 0.0016762618 0.00674333 0.022948824 -0.0077497307 -0.00052805437
-0.0055545415 -0.006004298 -0.008362756 0.018668909 -0.008849546 -0.0100945225 -0.0065093827 0.009938864
0.0 0.0019232652 -0.0019761515 0.00822473 0.0005015608 0.0027914303 -0.010589378 0.01744421
0.0 -0.0021414836 0.0 0.0 -0.009470665 0.000849659 -0.011588291 0.00079420325
-0.008379791 0.00793877 -0.0069177616 -0.00081602746 -0.0020648604 -0.012842216 -0.00861097 -0.008652612
-0.008225792 0.0 0.0004961527 0.01687446 -0.0073713884 0.017437397 0.0011331486 0.016757393
0.0022691467 0.016847573 0.0 -0.0073845563 0.0 0.013842599 0.009322041 -0.011713042
-0.0147112105 -0.009930488 0.01089433 -0.005998983 0.02106618 -0.00047907006 0.0038920657 0.022464909
0.024007954 -0.016729716 0.00450512 0.008326242 0.013140272 -0.005817278 -0.009138302 -0.0067674113
-0.0022476723 0.00090819417 0.017929427 -0.010857224 0.009373961 -0.008346012 -0.011480466 -0.0010636337
0.0004604325 0.02278424 0.0 0.013599407 0.0059781834 0.0168995 0.0145943295 -0.012480735
0.004676724 0.0 0.0 0.0 -0.0059840004 -0.0086426325 -0.0051554875 -8.491943e-05
-0.007021447 -0.00676482 -0.007712013 -0.00039996652 0.0 0.022647796 0.018194353 -0.013054556
0.009000928 -0.004710165 0.009634715 0.027204877 0.004358485 -0.012773157 -0.016827546 0.023142388

sequential/dense_1/BiasAdd/ReadVariableOp f4 [3]
00000000: d13a e73b d8f5 4abc 041c 9b3b
0.007056572 -0.012387715 0.0047335643

sequential/dense/MatMul f4 [128, 128]
00000000: a98e 223b 6ec4 cd3d 8063 e33c eccb 433e
00000010: 6643 cb3d d9c7 06be 654b b03d 4065 c6bb
00000020: 7398 023e f242 e8bd 8e1c 5cbb 8206 48bd
00000030: a8f1 443d 6dc9 a5bc 5889 5d3d 342d 5c3d
00000040: 0065 a83d bc5d 763d c33a b73d b1ba 5abd
00000050: a6da 1cbd 1ece f0bc 8ac0 bbbd 6662 c8bc
00000060: 388e b5bc 5c48 01bd 807f dd3d 1dbf b8bd
00000070: 6ea4 6fbd 132c 0e3e c7b0 ed3c eb72 5b3d
00000080: f56b 333d 9af5 0fbb 8af6 f23d 2899 013e
00000090: 56c1 eebd 9e96 9dbd 3a0f a2bd a26a ca3d
000000a0: 96e8 fa3d d0a5 b9bd d5f9 a5bd 3002 d6bd
000000b0: 6134 013e d0ee 343e c020 d0bd e5cd 92bd
000000c0: 8ed5 a33d 801a bc3d 00cc a5bd b7bc 06be
000000d0: 0401 653d 45e0 13bd beab d23d da13 473e
000000e0: 0322 b5bd 8e38 9dbd 08da 04be 5aa0 213e
000000f0: 353d 083e b93c 8b3d 6b79 68bd a77d 51bd
00000100: 1a96 123d 80eb c7bd e89f 843c 8a27 df3d
00000110: 5c1e 913d c8a7 c1bd 706f 263c d1ff 083e
00000120: e887 2dbd 4480 e33c 04de 6f3b 5ea2 5cbd
00000130: 64ed 183d f926 8a3d 7ba5 1c3e 092e c3bd
00000140: 6f95 bdbd bc9a 0bbe 3233 de3d ad6f e7bb
00000150: 2de9 0a3e 264f 41bd 65e3 163e 5e6a 16bd
00000160: 6275 59bd a5bd 9e3d 4597 f03c d860 c13d
00000170: ccc5 4e3c 6cae aabd fdd1 bebd 77d1 0bbc
00000180: 658a ae3d 275e 8cbb 5698 9e3d 5f1f aa3d
00000190: a8e6 513d b8b6 8dbd 8fa6 c03d cb15 013e
000001a0: 32c8 18be 7fac 1a3e 007c a2bd b7fd 63bd
000001b0: 10ee 5e3c 200f 573e 25a0 173e a4b1 8d3d
000001c0: 86aa 953d b0a4 943d 3b15 65bd d612 083e
000001d0: 57f0 163e 0a97 dbbd 6041 163d 4674 7e3d
000001e0: 0093 42bb 802e 303e 7d95 36bd f734 033e
000001f0: 6f40 f8bd cef8 333d 4ac9 e23c 80eb 52bc
00000200: ba55 cb3d 6880 e43c 6c79 a9bd eeae f4bd
00000210: 896b a6bd ea0d e5bd d04d 213d 802f cabd
00000220: 0fa1 09be 5987 b2bd 004e bcbd dbe1 a2bd
00000230: 2085 75bc 3d7d d8bd 5160 afbd d89a 9b3d
00000240: 0455 c5bd d844 9c3c b227 b5bd 762b e1bd
00000250: 6c5b 423d 0071 0bbe 107d 24bd b0c3 323c
00000260: 69b8 aebd a4fd 353d 7c56 e5bd 901a 5c3c
00000270: 70a9 553c fe1c db3d 38bf 41bd 6055 fabb
00000280: 4f41 b6bd 2830 82bc 487e 0ebe a864 d63c
00000290: 7112 0b3e 8053 a03d 24e3 7c3d 6e3c e43d
000002a0: 6484 a43d 3c24 a23d 503d 05bc 8cc5 dfbd
000002b0: 6cdc 22bd c6f0 843d 56d3 f53d b83f c1bc
000002c0: 02bd 7fbd f1c1 15be 2494 153d 30f3 393d
000002d0: 1893 5cbd 3c15 b43d 92ef c83d 10b6 343d
000002e0: 302c c03d 4a76 d93d 00e9 43bc 5839 12be
000002f0: a098 2dbc 06bf c63d 807a e9bd 5473 823d
00000300: ac4a a93d 5abe d73d 714f 0a3e 4046 143d
00000310: cdc6 f5bd 220b ecbd 14fc 453d 9c01 07bd
00000320: 5073 22bc 206c e23c d79e 083e 164f d1bd
00000330: bc49 513d 2858 49bd 6479 8fbd 9357 b5bd
00000340: 404c 7f3d 9ff8 8ebd 66ab 973d 8034 83ba
00000350: 7e81 cd3d afd1 1bbe b88d 443d d869 c4bd
00000360: bf1e b4bd 9c8c e8bd bc29 2f3d ed45 10be
00000370: 2129 a2bd be0b 04be 406a adbc 937e 9ebd
00000380: de91 bfbd 494d 073e c22f 993d 4cd4 b63d
00000390: 76a8 ff3d aab3 12be ca86 cc3d 0a07 09be
000003a0: 0c3b 79bd 2292 dd3d 07bf a2bd 7961 8fbd
000003b0: e02a b63b c941 123e 8c65 3dbd 0067 d23a
000003c0: b653 8fbd 6c55 4c3d 65d7 b4bd dc2e e6bd
000003d0: a479 39bd 70fd 6c3c 20e9 543c bc3e 05be
000003e0: d231 e23d 10df 47bc c215 e43d f222 fabd
000003f0: 8a3f efbd 1c1e 023d b00d 2bbc 30cd 9ebd
0.002480427 0.100472316 0.027757406 0.19120759 0.099249646 -0.13162173 0.0860813 -0.0060545504
0.12753467 -0.11340894 -0.0033586356 -0.04883433 0.048082024 -0.020237649 0.05408606 0.053754047
0.08222389 0.060147986 0.08946755 -0.0534007 -0.038294457 -0.02939516 -0.09167583 -0.024460983
-0.022162542 -0.031563148 0.10815334 -0.09020827 -0.05850642 0.13884 0.029014958 0.05357639
0.043804128 -0.0021966458 0.1186343 0.1265608 -0.1165797 -0.076947436 -0.079130605 0.0988362
0.122513935 -0.09064829 -0.08104292 -0.10449636 0.12617637 0.17669225 -0.101624966 -0.071681775
0.07999717 0.09184742 -0.080955505 -0.13157926 0.05590917 -0.036102552 0.102866635 0.19441167
-0.08844378 -0.076768026 -0.12973797 0.15783826 0.13304599 0.06798691 -0.05675642 -0.051145222
0.03578768 -0.09761715 0.01618953 0.10896213 0.07085869 -0.0945583 0.010158405 0.13378836
-0.04236594 0.027771123 0.0036600837 -0.053865783 0.03733577 0.06745715 0.15297501 -0.09530265
-0.09257018 -0.13633245 0.108496085 -0.0070628733 0.13565512 -0.047194622 0.14735182 -0.036722533
-0.05309046 0.077510156 0.029369006 0.094422996 0.012620401 -0.083340496 -0.09317396 -0.008533827
0.085224904 -0.004283685 0.077438995 0.08306765 0.05124536 -0.069196165 0.094067685 0.1260597
-0.14920118 0.15104865 -0.079338074 -0.055661883 0.013606563 0.21001863 0.14807184 0.06918648
0.073079154 0.07257974 -0.05592845 0.13288435 0.1474012 -0.10722168 0.03668344 0.062122606
-0.002968967 0.17205238 -0.044576157 0.12813173 -0.12121665 0.04393845 0.027683873 -0.01287353
0.099284604 0.02789326 -0.082751125 -0.11947428 -0.081259795 -0.111842945 0.03938085 -0.09872341
-0.13440345 -0.08717222 -0.09194565 -0.07953235 -0.014985353 -0.10570762 -0.08563293 0.075978935
-0.09635356 0.019075796 -0.08845462 -0.10994618 0.047450468 -0.13617325 -0.04015833 0.010910913
-0.08531267 0.044431344 -0.11198136 0.013434067 0.013040885 0.10698889 -0.0473015 -0.007639572
-0.088991754 -0.015892103 -0.1391536 0.026171044 0.13581254 0.07828426 0.061740056 0.111443385
0.08033064 0.079170674 -0.008132294 -0.10926351 -0.039760992 0.064912364 0.120032 -0.023589954
-0.06243611 -0.14624764 0.03651823 0.045397937 -0.053851217 0.08793113 0.098113194 0.04411894
0.09383428 0.10618265 -0.011957407 -0.14279687 -0.010595471 0.097044036 -0.11400318 0.06369653
0.08266196 0.105343536 0.13506867 0.036199808 -0.12000809 -0.11525561 0.048336104 -0.03296052
-0.009915188 0.027639449 0.13341843 -0.102201626 0.05109571 -0.049156338 -0.07005575 -0.08854594
0.062328577 -0.069810145 0.074057385 -0.0010010153 0.10034464 -0.15216707 0.047986716 -0.095905006
-0.08794927 -0.11354944 0.04276441 -0.14089175 -0.07918001 -0.12895104 -0.021168828 -0.07738986
-0.09353994 0.13213076 0.07479812 0.08927211 0.12483303 -0.14326349 0.099866465 -0.13381591
-0.060847327 0.10818888 -0.07946592 -0.07001013 0.0055593103 0.14282908 -0.04623942 0.0016052425
-0.069983885 0.049886152 -0.08830146 -0.112394065 -0.04528202 0.014464721 0.012995034 -0.13012213
0.11044659 -0.012199178 0.111369625 -0.122136965 -0.11682041 0.031766996 -0.010440275 -0.0775398

sequential/dense_1/MatMul f4 [3, 128]
00000000: 53c1 6c3e f41f a4bd 247b 32be d78a 0c3c
00000010: 5027 76bd 0c07 203e cf9d 703e 8a23 32be
00000020: b701 acbc 5afd febd 1828 8a3c 1fcb 213d
00000030: 8429 083d 048c 50bd 1f89 b5bd 3eca 14be
00000040: 9acc 9d3c 34d4 3b3d 5aa7 043d b6ab 5c3d
00000050: 6b1d acbd 83b3 d53d dab9 b33d b1c2 093e
00000060: 469a 15be dc1d 14be 84b9 2cbe 6869 493e
00000070: 3962 19be 44e7 243d 4052 33be 262e 3abe
00000080: ad48 323e e2b9 3f3d 0334 073e b6f7 293e
00000090: fabb f0bd e546 5e3e 60bc fa3d 0f1f 2cbd
000000a0: 21d1 1b3e 0526 453e a692 dd3d 60c2 e83b
000000b0: 685e 9dbd c8f5 6d3e f402 9dba f404 14be
000000c0: ef55 433e 6919 e73d a08c a7bd 3e40 cf3d
000000d0: f527 4f3e b802 fcbd 8df9 953d 5fab 4fbd
000000e0: 66d2 a3bd 48d1 af3c 0db1 64be b4ab 1dbe
000000f0: dc22 b2bd d949 713b 18b1 c5bd 3740 1bbe
00000100: ea50 db3d 6880 2d3e 9a0d 893d 0cd4 8cbd
00000110: 60a3 7bbc ecac 02bd 079e 853e cbfb d63c
00000120: a8cb f7bc ec2d 44bd 681c 243e 47f2 9fbd
00000130: 85b8 5ebd 7207 2e3d ec08 40be c2da 683e
00000140: 581a 803d 14f7 e7bd e70d f4bd b5d7 453e
00000150: 1736 5e3e 42f8 cc3c 1205 a53d b586 353e
00000160: 5c84 123e 8250 e5bd 0acc bf3d 501f 11be
00000170: 46ed 3f3c 97f3 6abe c09a 393d 3c8d 2bbd
00000180: a601 423e 9abf 0dbe a0d9 b6bd cb26 1b3e
00000190: cb9d 2fbe 9042 293e 62c1 6f3d 5ea3 30be
000001a0: e8a9 0fbe 605c 3b3c ab70 0b3e 648a 4abe
000001b0: 9c17 cfbd 3ba1 eb3d 593b 063e afe7 54bc
000001c0: 6e89 353d f9c9 10be fded 693d 31cd 51be
000001d0: 1aa9 a63d fd7d 293e 41a9 1fbe 42f7 1dbb
000001e0: 6e71 60bd bf6a 36be 5f2a 84bd 73e8 bd3b
000001f0: cf3b 533e 5b8b 18be 5e53 a0bd 7522 c8bb
00000200: 4eba 75be 9ea1 eb3d 35ac 45bd 9a81 9e3c
00000210: 3af7 e8bc 00f2 493e 3b75 b13d c139 eabd
00000220: a6a7 e8ba 5c31 cbbc b3bb 463e b1c1 453e
00000230: 57e2 bbbc b610 05be c88d 1d3e ae77 453e
00000240: 70bf 6abe 3532 4a3e f719 8abe 320b a4bd
00000250: 3798 0bbe 4dcf efbd d3a5 09be ef7c e33d
00000260: c629 203d 28f7 f23c 38fe 0a3e dd73 64be
00000270: 23fd 8b3d e4c0 703d 3a04 213e 20b2 4cbe
00000280: 50ea 0abd 459a 9e3d 9198 143d b321 363c
00000290: 2a9b 743e 2765 39bc 686f a2bd ae64 5abe
000002a0: 229e a03d 3252 693e 7aec a53d fcd0 113d
000002b0: 9dd8 383d 597f e73d aa83 173e 8929 1ebd
000002c0: 7528 80bd 411d e5bd e90d 6abc dd89 643e
000002d0: 2b02 163d 249a 253e 9c81 2d3d fd53 aabc
000002e0: 98e0 2ebd ee93 ca3d 1fd5 ba3d 94a7 403d
000002f0: d2a4 273d 6749 6bbe 8de4 6a3e 7276 463c
00000300: 9f74 d0bd 1b37 3ebe 938b 3bbe 42e6 493d
00000310: 8fe1 303e a979 6cbe b76f 8ebd 7fa1 f43d
00000320: 701c 07be c814 95bc a598 533e d03a 3a3e
00000330: a109 63be 0cd6 55bd 6cf7 93bc 07e6 81be
00000340: f2ea 0ebe 7012 353c 550c 55bd aa6b c03d
00000350: dcfb f3bd 27ae 293e e551 833c 6e97 453d
00000360: f4f5 ef3d d5b2 103d e2f5 25be 21f6 e73d
00000370: 4444 f2bd 4b2c 21be 31ea 413e 0440 9d3d
00000380: 5f70 15be 619c 72be 26b4 df3d 0d1b 6b3d
00000390: 6e6c 3cbe 2639 86bb b7fc 33bd c5b0 cdbc
000003a0: 9112 9dbd 1b11 3dbe ff0f d9bd 60af 833b
000003b0: 4d46 16bc e63b c5bd e6f5 4b3e 5dd0 473e
000003c0: c4ba 073e 8900 f63d 8112 3c3e 2efb f23c
000003d0: 5e07 a43d b83a 4abe 6a63 1abb 0662 4e3e
000003e0: 281e 6abe bdc3 0e3e 6180 4cbe c708 0fbe
000003f0: d127 a83c de26 ee3d 8f85 82bd 34d9 79be
0.23120622 -0.08013907 -0.17429787 0.008578024 -0.060096085 0.15627688 0.23497699 -0.1739637
-0.020996911 -0.12450667 0.016864821 0.039500352 0.033242717 -0.05091478 -0.088640444 -0.14530274
0.0192626 0.04585667 0.03238616 0.053874694 -0.084040485 0.1043463 0.08775683 0.13453175
-0.14609632 -0.14464515 -0.16867644 0.19669116 -0.14978875 0.040259615 -0.17511845 -0.18181667
0.17410536 0.04680813 0.13203435 0.165984 -0.11754604 0.21706732 0.12242961 -0.042021807
0.15216495 0.19252785 0.108189866 0.0071032494 -0.07684022 0.2323829 -0.001197903 -0.14455014
0.1907575 0.112841435 -0.08181119 0.10119675 0.20230086 -0.12305206 0.07322989 -0.05070054
-0.07999115 0.021462098 -0.22333165 -0.15397531 -0.08698055 0.0036817698 -0.096529186 -0.15161215
0.107087925 0.16943514 0.066920474 -0.06876382 -0.015358776 -0.031903192 0.26097128 0.026243111
-0.030248478 -0.047895357 0.16026461 -0.078098826 -0.05437519 0.04248757 -0.18753403 0.227397
0.06255025 -0.11326423 -0.11916714 0.19320567 0.21700321 0.025020722 0.08057608 0.17727168
0.14308304 -0.11196996 0.09365089 -0.14172101 0.011714285 -0.22944485 0.045313597 -0.04188274
0.18945941 -0.13842621 -0.089282274 0.15151517 -0.17150037 0.16529298 0.058534034 -0.1724982
-0.14029658 0.011435598 0.13617198 -0.19779354 -0.10111925 0.11505362 0.13108577 -0.012994691
0.044320516 -0.14139546 0.05711173 -0.2048843 0.08137722 0.16551967 -0.15591909 -0.0024103676
-0.054795675 -0.17814158 -0.06453394 0.0057955324 0.20628284 -0.1489691 -0.07828401 -0.006107623
-0.23996851 0.115054354 -0.048259933 0.019348908 -0.0284382 0.19721222 0.08664938 -0.11436797
-0.0017750158 -0.02480381 0.19407539 0.19312169 -0.022935076 -0.12994656 0.15386117 0.19283935
-0.2292459 0.19745715 -0.26972935 -0.08009948 -0.13632284 -0.11709461 -0.13442163 0.111078136
0.03910234 0.029658869 0.1357354 -0.22309823 0.06835391 0.058777705 0.15724269 -0.19989824
-0.033914864 0.07744268 0.03627831 0.011116433 0.23887315 -0.0113156205 -0.07931405 -0.21327469
0.078426614 0.22785261 0.08101745 0.035599694 0.045128454 0.113035865 0.1479632 -0.03861383
-0.062577166 -0.1118722 -0.014285543 0.22318216 0.03662316 0.16172081 0.042359933 -0.020792002
-0.042694658 0.098914966 0.09122681 0.047034815 0.04092867 -0.2297722 0.22938748 0.0121132005
-0.10178494 -0.18575709 -0.18314962 0.049291857 0.17273544 -0.23093285 -0.06954902 0.119448654
-0.13194442 -0.018198386 0.20663698 0.18186498 -0.22171642 -0.052206084 -0.018062316 -0.2537081
-0.13956812 0.011051759 -0.052013714 0.09395535 -0.11913273 0.1657034 0.016030261 0.048240118
0.11716834 0.035326798 -0.16207078 0.11326242 -0.11829427 -0.15739553 0.18936993 0.07678226
-0.14593647 -0.23692466 0.109230325 0.057398845 -0.18400738 -0.004096168 -0.04394218 -0.025108704
-0.07669557 -0.18463556 -0.10598754 0.004018709 -0.009172034 -0.09630565 0.19918022 0.19513078
0.13254839 0.12011821 0.18366434 0.029660787 0.08009218 -0.19748962 -0.002355779 0.2015458
-0.22863066 0.13941856 -0.19970848 -0.13968192 0.020526798 0.11628507 -0.063731305 -0.24399263
